…
    layers.Conv2D(filters=64, kernel_size=3, activation="relu", padding='same'),
    layers.MaxPool2D(),

    # Third Convolutional Block
    layers.Conv2D(filters=128, kernel_size=3, activation="relu", padding='same'),
    layers.MaxPool2D(),

    # Classifier Head
    layers.Flatten(),
    layers.Dense(units=6, activation="relu"),
    layers.Dense(units=1, activation="sigmoid"),
])
model.summary()

Model: "sequential"
_________________________________________________________________
 Layer (type)                Output Shape              Param #
=================================================================
 conv2d (Conv2D)             (None, 128, 128, 32)      2432

 max_pooling2d (MaxPooling2D  (None, 64, 64, 32)       0
 )

 conv2d_1 (Conv2D)           (None, 64, 64, 64)        18496

 max_pooling2d_1 (MaxPooling  (None, 32, 32, 64)       0
 2D)

 conv2d_2 (Conv2D)           (None, 32, 32, 128)       73856

 max_pooling2d_2 (MaxPooling  (None, 16, 16, 128)      0
 2D)

 flatten (Flatten)           (None, 32768)             0

 dense (Dense)               (None, 6)                 196614

 dense_1 (Dense)             (None, 1)                 7

=================================================================
Total params: 291,405
Trainable params: 291,405
Non-trainable params: 0
_________________________________________________________________

STEP 3: Train the model

model.compile(
    optimizer=tf.keras.optimizers.Adam(epsilon=0.01),
    loss='binary_crossentropy',
    metrics=['binary_accuracy']
)

history = model.fit(
    ds_train,
…
